notebooks/final_lstm_model.pth (torch, 283093 bytes, 9 tensors)

lstm.weight_ih_l0 f4 [148, 356]
000000 67 9d 10 bf 2d 2d db ba a5 a8 05 3f b5 b7 80 be
       -0.56490177 -0.0016721837 0.52210456 -0.25140157
000010 1c 96 45 be 83 dc a9 3e 37 9c 52 be 85 d4 0a 3e
       -0.19295543 0.3317605 -0.20567404 0.13557632
000020 fd 33 bd be 51 9d b2 3e d8 74 1f 3e cf fb 47 bf
       -0.36953726 0.34885648 0.15571916 -0.78118604
000030 82 0c 15 3e 30 08 97 3d fb 76 ab be e1 37 3f bd
       0.14555553 0.073746085 -0.33489212 -0.04668415
000040 4b 5a 92 3e be 6a 38 bc 15 de 83 be 0f 67 a5 3e
       0.28584513 -0.011255918 -0.25755373 0.3230519
000050 af 08 2d 3e e9 09 aa 3e 0c 7d d6 3e a5 97 da 3d
       0.16897844 0.33210686 0.41892278 0.10673455
000060 3b 1c 11 3d d6 b6 87 3d 81 8e e1 3d 5c 45 85 3d
       0.035427313 0.0662667 0.110135086 0.0650737
000070 9f ab 07 be 4c bb ba 3d b6 c5 3c 3e 70 16 a6 3e
       -0.13249062 0.09117755 0.18434796 0.32438993
000080 86 30 b3 3d ab 34 ab 3d 00 e2 1e be e9 f4 25 be
       0.087494895 0.08359655 -0.155159 -0.16206707
000090 bf 7f 21 be 78 14 1f be db bd 74 3d 44 6a b4 bd
       -0.15771388 -0.15535152 0.059751373 -0.08809331
0000a0 3e 51 db 3e 2d 7b 40 be cc 74 a7 3d 9b d6 e3 bc
       0.4283542 -0.18796988 0.08176574 -0.027812293
0000b0 fa 0b 7d bc 52 41 f1 bc 02 48 9d 3d 8e 2b 32 3e
       -0.01544475 -0.029450092 0.0767975 0.17399427
0000c0 c5 aa 42 be f2 5d f9 bd 33 0f 4e 3d f3 63 ce bd
       -0.19010456 -0.12176122 0.050307464 -0.100776576
0000d0 b6 cd b8 3e 49 7f ee bd 70 f0 31 be 93 06 3d 3c
       0.36094445 -0.116453715 -0.17376876 0.011537212
0000e0 c6 79 82 3e aa ce 20 be c4 45 db be 26 45 d1 3e
       0.2548353 -0.15703836 -0.42826664 0.4087307
0000f0 ce f4 1a 3c 3e 0b b7 bd d7 30 78 3e 30 91 e4 bc
       0.00945778 -0.08937691 0.24237381 -0.027901262
000100 5e 3b 57 3e fc 19 6c 3d 6f a4 65 3e 9c 09 21 bf
       0.2101874 0.057641968 0.22426008 -0.6290529
000110 ee 65 3c be 0b b1 ae be 21 14 86 3e 5b 79 9c bb
       -0.18398258 -0.34119448 0.26187232 -0.004775209
000120 1c 41 86 be 98 17 a1 bd 26 73 c2 be db 2a a7 bd
       -0.2622155 -0.07865828 -0.37978476 -0.08162471
000130 28 35 64 3f fa b2 7d bd bb a5 2f 3f 0a d2 d1 3e
       0.8914361 -0.061938263 0.6861226 0.4098056
000140 b8 ff 00 3f c7 58 dc 3e ad 31 ca bd cf 69 0d 3e
       0.50390196 0.43036482 -0.09872756 0.13809894
000150 5f a5 06 3e 4d 41 16 be 07 ca 8c 3f b3 ec 6c bd
       0.13149022 -0.14673348 1.0999154 -0.05784292
000160 ec 12 25 3e d5 a8 84 bf c4 45 c9 3e 06 9d 51 3f
       0.161205 -1.0364023 0.3931104 0.81880224
000170 6e b6 22 be d3 25 ac 3e 93 62 aa bc c6 61 0d bf
       -0.15889904 0.33622608 -0.020798957 -0.55227315
000180 30 43 4d be 1f d6 99 be 9b 3f 2e 39 2b ef c0 3e
       -0.20045161 -0.30046174 0.00016617628 0.3768247
000190 16 85 4f 3f a2 5d 90 bf 9a 97 5e 3e 70 e9 dc 3e
       0.8106245 -1.1278574 0.21737519 0.4314685
0001a0 3c 17 0f 3f 70 0b f9 3e 6a 4a 61 be ee b6 3a bf
       0.5589483 0.4864154 -0.22001043 -0.7293538
0001b0 25 37 fc 3d ea 3b 90 be 41 d3 23 3f ba b1 9d be
       0.123152055 -0.2817071 0.6399422 -0.30799657
0001c0 fa 10 36 bf 71 2d 7c 3f b4 13 8b bc 18 da e9 be
       -0.71119654 0.9850684 -0.016977169 -0.45674205
0001d0 03 44 bd be 84 09 89 3e fa 69 94 3f 3f 79 cb 3e
       -0.3696595 0.26765072 1.1594841 0.3974094
0001e0 68 b1 2b be 43 3a 02 be a1 c7 7e 3e 2c 7e fd 3e
       -0.16766894 -0.12717538 0.2488084 0.49510324
0001f0 d2 02 11 3e d2 ee 4b bf c1 e5 f4 be eb f6 15 3e
       0.14161232 -0.79661286 -0.47831538 0.14644973
000200 be 1e 92 3e b6 2d 21 bf 39 6d 0f 3d 6a 9d 07 3f
       0.2853908 -0.62960374 0.035016272 0.5297457
000210 0a fa 9e 3e 90 8e 5a be 8f e3 65 be b4 b6 fe 3c
       0.3105014 -0.21343446 -0.22450088 0.031092979
000220 9a c5 41 bf a5 87 a8 be 34 1a 79 bc 42 aa 36 bd
       -0.7569214 -0.3291599 -0.015204001 -0.044595964
000230 33 24 4d 3e f5 3a fd 3e 05 65 a8 be 25 f9 4a be
       0.2003334 0.49459043 -0.32889572 -0.19821604
000240 85 5f 6b 3e 0f 9e 63 be d6 6d d7 bd 16 4c 92 3d
       0.22985657 -0.22228263 -0.105189964 0.071434185
000250 ca f7 b2 be 38 58 5b 3c 4a 9d 14 3e 01 74 d7 be
       -0.34954673 0.013387732 0.14513126 -0.4208069
000260 d5 49 22 3f d6 01 99 3d e0 2a 9e 3d 0e f7 01 bf
       0.6339391 0.07471053 0.077230215 -0.507676
000270 d3 0e 44 3e fa 9f 05 3f 1d 59 23 bf 2c 5f 17 bd
       0.1914628 0.5219723 -0.6380785 -0.036955997
000280 55 c2 a2 be 86 e0 39 bc a5 a2 9e 3d 1a 85 a0 3e
       -0.3178889 -0.011345034 0.07745866 0.31351548
000290 33 72 21 be ba 24 0f bf 21 e6 2a bb 56 fd a4 bd
       -0.1576622 -0.55915415 -0.002607711 -0.080561325
0002a0 a2 cf 34 bf a0 65 d0 be f9 bf d8 3e 83 c0 5a 3f
       -0.7062932 -0.40702534 0.42333964 0.8545
0002b0 e4 bc 48 3f 6e 45 a6 bf bb 24 89 3f 0e ff 1e bf
       0.78413224 -1.2989938 1.0714334 -0.6210793
0002c0 08 5d ef be 05 92 7b 3e b7 e1 0e bf 25 ff 0c bf
       -0.46750665 0.24567421 -0.55813164 -0.5507682
0002d0 f5 85 c7 be 7d ba aa 3f 77 a6 ad bd fd e7 8a 3e
       -0.3896939 1.3338162 -0.08479016 0.27130118
0002e0 c3 e2 df 3b 6c b0 bc 3d c3 9a 87 3f 00 21 a4 3e
       0.006832452 0.09213337 1.0594105 0.32056427
0002f0 2b ec 2d be 4b 73 d6 be 06 be 1e be dc 05 fe 3c
       -0.16984622 -0.41884837 -0.15502176 0.031008653
000300 d6 97 db 3e 8c f6 cd 3e c9 ed 4b 3e 39 4e eb 3e
       0.4288928 0.40227163 0.19914927 0.45958117
000310 da 81 89 3f d9 29 36 3f db 6c e6 3e fa a7 3f 3f
       1.0742753 0.71157604 0.45004925 0.74865687
000320 3c a5 9d be 21 47 0b bf 8a 6d b0 be 72 9e 08 be
       -0.30790126 -0.5440541 -0.34458572 -0.13341692
000330 1e 0a c9 3e c6 a8 93 be 9a 94 9b bd 91 ea 14 bf
       0.3926553 -0.288397 -0.07596703 -0.5817042
000340 25 b8 8b bd ae 66 17 be 20 dd aa 3e 43 bb 4a be
       -0.06822232 -0.14785263 0.3337183 -0.19797997
000350 8b cf ff be 03 16 d9 bd e5 42 b1 be 57 f9 08 3f
       -0.4996303 -0.105999015 -0.3462135 0.5350546
000360 09 f8 8f be 9f bd cd 3d 13 e0 b2 3e d0 ec 8f be
       -0.28118923 0.10045933 0.3493658 -0.2811036
000370 99 1c dd bd 7b c4 87 3e 77 39 12 3f 64 07 32 bf
       -0.1079647 0.2651709 0.57118934 -0.6954253
000380 23 4a 8f 3e 14 6a 81 3d 02 a5 ab 3e 59 52 13 bf
       0.2798625 0.06319061 0.33524328 -0.5754753
000390 59 15 ef 3d 68 8f 1a 3e 24 f1 80 3f 40 75 ae be
       0.116739936 0.15093768 1.007359 -0.3407383
0003a0 12 85 0a be e9 85 04 bf 07 38 6b bf 83 b2 12 3f
       -0.13527325 -0.5176683 -0.91882366 0.5730364
0003b0 4b 79 fd 3e e1 fe 1e be e3 6c 40 3f 6c 34 c6 bd
       0.49506602 -0.15526916 0.7516615 -0.096779674
0003c0 3a bd 88 be 4c eb c8 bd 76 7d 95 bd 38 d8 44 3f
       -0.26706868 -0.09810504 -0.072993204 0.76892424
0003d0 80 6e 26 bf 04 c0 e9 be 0b e7 1b 3f f0 42 81 be
       -0.6501236 -0.4565431 0.6089942 -0.25246382
0003e0 46 1e 55 3d da 01 60 be 84 23 d5 be ef 41 16 be
       0.052030824 -0.21875706 -0.4162866 -0.14673589
0003f0 dd b0 3f be 1a 26 4e 3f b8 0f 1b 3f 97 d4 42 be
       -0.18719812 0.8052689 0.6057086 -0.19026409

lstm.weight_hh_l0 f4 [148, 37]
000000 ff 53 e5 bd ec 95 f5 be 09 04 d4 3d a8 94 2e 3d
       -0.111976616 -0.47965944 0.10352332 0.04262224
000010 d7 2b e3 3e 0a ce c0 3e 0f af 09 bf 41 ef 3d bf
       0.44369385 0.37657195 -0.53782743 -0.741932
000020 e3 ca e5 3e 7a 52 4b bc 3e 03 fc 3e 08 1d 81 be
       0.44881353 -0.012409801 0.49221224 -0.25217462
000030 12 5f 03 3e 4d d7 90 bd 56 00 94 bc 99 2f 00 3f
       0.12829235 -0.07072315 -0.018066566 0.5007263
000040 f6 b1 eb 3e 42 b9 12 be aa 83 c5 bd 2b 12 c2 3e
       0.4603421 -0.14328483 -0.096442536 0.37904486
000050 b1 30 00 bf 20 00 00 3d 43 6d a3 be fc e8 16 be
       -0.500743 0.03125012 -0.31919298 -0.14737314
000060 36 c4 43 be cb cf b4 3d e6 69 4f bf 08 60 3f bf
       -0.19117817 0.08828696 -0.81020963 -0.7475591
000070 f3 a0 df be c3 4f 3c 3d 07 2e a2 3e 3c 81 53 bf
       -0.43677482 0.045974504 0.3167574 -0.8261907
000080 3c 78 88 3e 68 41 27 3e 9f 63 4a 3e 1d e8 e2 3b
       0.26654232 0.16333544 0.19764565 0.0069246427
000090 0c 08 0c bf 95 d9 87 be 56 0f 26 be 93 16 8c bd
       -0.5469978 -0.2653319 -0.16216788 -0.06840243
0000a0 c7 74 7b be 50 fb 09 3e c3 d5 38 3d b8 73 a3 3d
       -0.24556266 0.13474774 0.045125734 0.07981056
0000b0 18 71 01 be 1f e7 98 be ae fc 06 bb 8d bf 05 3f
       -0.12640798 -0.2986383 -0.0020597386 0.5224541
0000c0 ff d6 a4 3d d9 53 9c be 3e a4 6b bd 6a f1 d1 be
       0.0804882 -0.3053272 -0.05752968 -0.41004497
0000d0 1a 92 a2 bd aa cc e7 3d 8d f5 91 bc b2 66 91 3d
       -0.07938023 0.113183334 -0.017817283 0.07099666
0000e0 e7 b7 d2 3e 40 03 81 be 9d f8 4a 3d 15 81 b9 be
       0.4115593 -0.25197792 0.049553502 -0.36231294
0000f0 e4 34 3c bd 8d fc 16 3e 2f 66 83 3e bd 73 14 be
       -0.045948878 0.14744778 0.25663897 -0.14497276
000100 8f 91 93 3d ec eb 30 3f ba 4b 0a 3e 25 ec aa 3e
       0.072054975 0.6910999 0.1350545 0.3338329
000110 80 21 ac 3e 45 ad 1b 3e cd 35 c3 be 40 f4 9e be
       0.33619308 0.15202816 -0.38126984 -0.31045723
000120 77 ce ad be 86 1a d8 be 4a 1e 9e 3d 26 b8 b2 be
       -0.33946583 -0.42207736 0.07720621 -0.3490612
000130 04 72 05 3f 83 85 a8 be 72 d1 0c bf 79 d1 01 bf
       0.521271 -0.3291436 -0.5500709 -0.50710255
000140 a0 65 dd bd 90 06 86 be 54 71 81 bd d9 48 02 be
       -0.10810399 -0.26176882 -0.06320444 -0.12723102
000150 8d 78 b4 3e 37 af db be 2f 83 3e bc eb 4d 58 3e
       0.35248223 -0.42907116 -0.011627956 0.21123473
000160 cb 8e 93 3e a9 02 52 3d 77 ac 1d 3e aa f7 cf be
       0.2881988 0.05127207 0.15397821 -0.4061864
000170 a2 c9 4b bd f4 ad bb 3e 29 30 34 3c 78 cb c3 be
       -0.04975284 0.36656153 0.01099781 -0.38241172
000180 09 73 c6 3d 86 c3 a1 be 6b 68 a1 3e fb fd 06 be
       0.0968991 -0.31594485 0.31524977 -0.13182823
000190 9c d6 bd bd bd d8 89 3e a8 0b 36 bf 65 6b f0 be
       -0.09269449 0.2692317 -0.71111536 -0.46956936
0001a0 ba 2e 35 bd b7 9d be be 16 ba f0 3e 54 26 9a 3d
       -0.044234015 -0.37229702 0.47016972 0.07526842
0001b0 61 27 5a 3e c8 de 3e 3e 53 3e fb bd e1 3f 28 be
       0.21304084 0.18639672 -0.12267747 -0.16430618
0001c0 5c f5 91 bc ef 8f 7b bd 39 cc 9e bf 9f 00 72 3e
       -0.017817192 -0.061416563 -1.2406074 0.2363305
0001d0 cd 56 e2 3d d4 55 01 3d 94 8c 6e bf ce ce cc bb
       0.11051712 0.031575993 -0.93183255 -0.006250239
0001e0 9c 30 c8 be 6a 16 d0 3e bb 51 a2 3e 97 a1 2f 3e
       -0.39099586 0.406421 0.3170298 0.17151485
0001f0 f1 38 fd 3e b7 56 5b be 2e 6b 91 be 7e db 42 bd
       0.49457505 -0.21419798 -0.28402084 -0.047572605
000200 fb a1 28 be 12 bf e5 be 7b 85 15 be 91 15 23 3e
       -0.1646804 -0.44872338 -0.146017 0.15926196
000210 75 05 38 be ca 0e 78 be ad 55 7b 3e 95 bb a2 bd
       -0.17970832 -0.24224392 0.24544401 -0.07945935
000220 8b 02 7a bd 97 59 07 bf 62 93 a1 3c 22 2b 08 be
       -0.06103758 -0.5287108 0.019723598 -0.13297704
000230 b3 78 3a 3e ab ff 99 3e 50 1d b5 3e 1d 4c e3 bd
       0.18210106 0.30077872 0.35373926 -0.11098502
000240 18 2b a5 3d 5c b5 4d 3e 1c ed 01 bf 2c 1c e0 be
       0.0806486 0.20088714 -0.50752425 -0.43771493
000250 46 2e 56 3e 5e 66 a5 3e 7a 57 8d be 4b 6c 59 3d
       0.2091609 0.32304662 -0.27605802 0.05308179
000260 d2 e7 78 be 0f 8f f2 3e 07 bb 06 bf be a8 b5 3e
       -0.24307182 0.4737477 -0.5262913 0.35480303
000270 fc 12 f6 be 10 85 d6 3e ab 22 9d be 3a 5e b2 bd
       -0.4806136 0.41898394 -0.30690512 -0.087093785
000280 eb f0 26 3c 08 60 2f 3e 55 c4 2c bf 03 a8 2b 3e
       0.010189275 0.17126477 -0.6748708 0.1676331
000290 6c 87 3f 3e 7e 81 df be 08 99 25 be d0 3c 6b bf
       0.18704003 -0.43653482 -0.16171658 -0.9188967
0002a0 94 85 fe 3e af 59 a6 be bd 99 34 be 67 58 b1 3e
       0.49711287 -0.32490298 -0.17636772 0.34637758
0002b0 04 a2 7f bd 48 e7 19 bf b1 29 cf be e5 83 eb be
       -0.06241037 -0.6011853 -0.40461496 -0.45999065
0002c0 5d 15 c8 be be be e1 be 36 aa aa 3d 41 0e 81 bf
       -0.390788 -0.44090837 0.083332464 -1.0082475
0002d0 08 96 e9 bd 0e bb 83 be a0 df f9 be 69 ef 83 3d
       -0.11405569 -0.2572865 -0.48803425 0.06442148
0002e0 00 70 1b 3d 67 ea 54 3f 7e 2f 58 3e 29 a6 4b 3b
       0.03794861 0.8317017 0.21111867 0.003107438
0002f0 3c 13 fc 3e 48 a9 b6 3e e4 e4 24 bf 06 3e 87 be
       0.49233425 0.35676026 -0.6441176 -0.26414508
000300 5b fe 0d 3f 9b 13 bc be 78 59 bd 3e 7f 18 16 bf
       0.5546624 -0.36733708 0.36982322 -0.5863113
000310 cf bb 54 3f b7 df 1e be b1 e8 c0 3d 20 11 22 be
       0.83099073 -0.15515028 0.09419382 -0.15826845
000320 05 bb 0c bf 82 4d b2 be 6a 0e 4f 3d 06 33 99 3e
       -0.5497287 -0.3482476 0.050550856 0.2992174
000330 2b e0 0e be 5e fc 63 3e 62 c7 22 3e 29 ba 76 bf
       -0.13952701 0.22264239 0.15896371 -0.9637781
000340 fd 44 b9 3c 3a 5f 70 bb df f6 19 3f 25 7e b5 3e
       0.022615904 -0.0036677853 0.6014232 0.35447803
000350 7e 0a f1 be a3 14 e7 3e 93 6c 2e 3e 22 48 90 38
       -0.47078317 0.45132932 0.17033605 6.879891e-05
000360 82 08 0e 3f 6e 17 88 bf 86 98 41 bd c2 59 02 bf
       0.5548173 -1.063215 -0.0472646 -0.5091821
000370 25 8b 39 bd 98 57 01 3e 36 ae c3 3d 21 43 93 3e
       -0.045298714 0.1263107 0.095547125 0.28762153
000380 e4 a4 b8 be 35 f9 4c bd 1d 84 ba 3e ee 79 d4 3e
       -0.36063302 -0.05004235 0.3642892 0.41499275
000390 8c 4d ce bb c4 18 da be 48 f5 56 bf 43 ac 0e 3f
       -0.0062958654 -0.4259702 -0.8396802 0.557316
0003a0 a8 c5 8c 3e 4a 76 0a 3f 69 d8 dd be d2 58 0c bd
       0.2749455 0.54086745 -0.4332917 -0.034264393
0003b0 b9 61 c8 be a7 b9 fd 3d 10 36 ce 3e ea 70 73 be
       -0.39137056 0.12388926 0.4027562 -0.23773542
0003c0 7c 5c b4 be d5 1d 5e bc 5e 99 ed be d5 21 65 3e
       -0.3522681 -0.013556917 -0.46406072 0.22376187
0003d0 78 dc a7 3e 14 31 49 3f 56 b2 74 bd ab 61 7b 3f
       0.32785392 0.7859051 -0.059740387 0.98195904
0003e0 77 4f e5 be f5 a2 b4 be 8e 69 2e 3f 39 96 05 3e
       -0.4478719 -0.35280576 0.68129814 0.13045587
0003f0 96 83 eb 3e 60 4b 29 3e 3d d3 85 be c6 fc bb be
       0.4599883 0.1653266 -0.26137725 -0.36716288

lstm.bias_ih_l0 f4 [148]
000000 4e b7 14 be 35 e2 3a 3c 52 2b 87 be 2e 53 2d be
       -0.1452305 0.011406471 -0.26400238 -0.16926262
000010 26 96 1d be f1 e6 0a be 74 7e 5e 3d 24 d1 04 bd
       -0.15389308 -0.1356466 0.054319814 -0.032426015
000020 10 01 83 bd 5b ef 7a be 72 a1 94 be fa 60 92 bd
       -0.06396687 -0.2450537 -0.29029423 -0.07147403
000030 36 bd 17 3d 71 21 3f be 1b a5 02 be 9e 41 4c be
       0.03704568 -0.186651 -0.12758295 -0.19946906
000040 27 a5 9c bd d6 40 84 bb f7 a7 a9 be 6e 86 53 bc
       -0.07648688 -0.0040360494 -0.3313596 -0.0129104685
000050 a6 bb e2 bd 18 0d 3d 3d 06 27 f0 3c 9b f4 35 be
       -0.11070947 0.046155065 0.029315483 -0.17769091
000060 2d d4 8a bd 2e ac 34 3e f8 04 34 be de 3e da be
       -0.067787506 0.17643806 -0.1758002 -0.4262609
000070 58 12 c0 3c 9b c9 55 bd 1e d0 ba bd c4 57 c4 bd
       0.023446247 -0.05219422 -0.091217265 -0.095870525
000080 ae 7d a8 be a1 46 db bd cf 4a bd 3d 3b dd d2 bd
       -0.32908386 -0.10706831 0.09242784 -0.102961026
000090 c3 c9 7e be 6e 8a a5 bc d0 39 44 3e 5d 74 86 3e
       -0.24881653 -0.02020761 0.19162679 0.26260653
0000a0 c0 b3 ac 3e 3b 72 3e be 24 1a 3d 3e da 6f 11 bc
       0.33730888 -0.18598263 0.18467003 -0.008876765
0000b0 5a 56 2f 3e 0c cb 75 3e a6 5b 1b bd ca 62 49 3e
       0.17122784 0.24003237 -0.0379292 0.19666591
0000c0 08 b7 87 3d 43 e1 60 3e fe 85 52 3e 73 27 26 3e
       0.06626707 0.2196093 0.20558926 0.16225986
0000d0 21 7c aa 3e eb 75 3b 3e 74 b5 99 bc ef 69 85 bd
       0.33297828 0.18306701 -0.018763281 -0.06514346
0000e0 49 ed 0f 3d f9 c3 96 3d 8e b8 ce 3d 2d ce 45 bd
       0.035138402 0.073615976 0.10093795 -0.048292328
0000f0 5b ac 91 3e 26 ba 05 3c e3 78 65 3e 36 4d 58 3e
       0.2845181 0.008162057 0.22409396 0.21123204
000100 03 86 7b be bb 4c 36 3c 9e 4a 7d 3d f4 95 5b 3e
       -0.2456284 0.011126692 0.06183874 0.21443921
000110 c7 6c b5 bd 7c 29 e6 3d c5 53 9f 3e 60 4e e9 3d
       -0.08858638 0.11238381 0.311186 0.11391902
000120 0d bc b4 3d 70 81 16 3d bc 63 70 be aa 95 56 be
       0.0882493 0.036744535 -0.23475546 -0.2095553
000130 09 9d 7d 3e f6 da c9 bd 1a c3 f8 3e 32 e6 5b be
       0.24766935 -0.098562166 0.4858635 -0.21474531
000140 0c 79 73 be bf f2 ca bd 27 50 72 3e ab 63 a0 be
       -0.23776644 -0.099095814 0.23663388 -0.3132604
000150 83 fe 81 3e 1a 6b e8 bd 48 ac 3c 3e ae 25 53 3e
       0.2538949 -0.11348553 0.18425095 0.20619842
000160 c3 9b dd bb ca 54 4b 3e c0 7b 88 3e f8 eb f4 bd
       -0.006762953 0.19856563 0.26656914 -0.1195907
000170 60 0a 65 be 0a 5e b2 3e 00 1b bd bd 38 ae 0e be
       -0.22367239 0.3483737 -0.092336655 -0.13933647
000180 5e ae 5c be 5c 4a 87 be 15 44 a0 bc 5c fd 78 be
       -0.21550891 -0.2642392 -0.019563714 -0.24315399
000190 ac 19 04 3e dc 9e cb 3e aa e0 b5 bc 96 8e 6d be
       0.12900418 0.39769638 -0.022201855 -0.23198923
0001a0 8e 33 88 3e 7a 11 23 3e b9 86 bf 3c 8b 0b 28 bd
       0.26601833 0.15924636 0.02337967 -0.041026633
0001b0 f8 00 d2 bd 56 5c 3b be f5 8a 27 be 4e 7b 14 be
       -0.10254091 -0.18296942 -0.16361602 -0.14500162
0001c0 b0 5c b6 bd 64 0e 97 bc 33 cd 2b 3e b8 ce 5f be
       -0.089043975 -0.01843948 0.16777496 -0.218562
0001d0 38 76 3c 3e 20 6d 1d be 3e c0 2f 3e 52 5f f5 3d
       0.18404472 -0.15373659 0.17163178 0.119810715
0001e0 a2 b9 4b be 47 8d 18 bd 5e 6f 75 be 76 bc 98 be
       -0.19895032 -0.037244108 -0.23968264 -0.29831284
0001f0 9c 34 30 be 9c 94 08 be 16 59 dc bd c2 4a 04 bc
       -0.17207569 -0.1333794 -0.10759179 -0.008074464
000200 cb 61 41 be 9c 7f eb bd 79 60 98 3d 85 2c ae bd
       -0.18884961 -0.11498949 0.07440276 -0.08504585
000210 be 24 c8 3d e7 9e 40 3e 67 ed 8d 3e 9c 07 e1 3d
       0.09772633 0.18810616 0.27720186 0.109877795
000220 5f f9 2d be 5d 9e c3 3b 33 63 cb be 7a 26 9f bd
       -0.16989659 0.005969806 -0.3972412 -0.07771011
000230 d3 08 20 3d 7e 28 11 3e 1c 38 19 3e 26 50 9f be
       0.039070915 0.14175603 0.1496281 -0.31115836
000240 03 7b 08 3e ca 31 05 be 5e ae ea 3d 7f a2 a4 3d
       0.13328175 -0.13007274 0.11459039 0.08038806

lstm.bias_hh_l0 f4 [148]
000000 3f f3 94 bd 64 ca 70 3d bf 92 fe bd e7 b6 c5 bd
       -0.07272958 0.058786765 -0.12430333 -0.096540265
000010 e2 9c d1 bd 13 1e b4 bd 6b 49 2c bc 98 83 01 be
       -0.10235001 -0.08794799 -0.010515551 -0.12647855
000020 22 20 3c be 01 ce db bd 61 ca 60 be 58 80 36 3e
       -0.18371633 -0.107326515 -0.21952201 0.17822397
000030 02 8d 10 3d 74 a2 f5 bd 2f 53 3e be ca 26 2d be
       0.035290726 -0.11993876 -0.1858642 -0.16909328
000040 35 3e 64 be ea a0 1f bd 47 4d 91 be 28 0a 03 be
       -0.22289355 -0.03897182 -0.2837927 -0.12796843
000050 fa 06 e1 3a 3d e7 b7 bd c4 5b ea bb 04 0e db bc
       0.0017168217 -0.08979652 -0.0071520526 -0.026740082
000060 24 c9 c9 3d 76 b6 82 3e 55 5a b4 3c 1c ce d4 be
       0.09852818 0.25529832 0.02201573 -0.415635
000070 65 f1 cc 3d ed 95 04 bd c7 45 01 be c7 57 50 be
       0.1000698 -0.032369543 -0.12624274 -0.20345984
000080 7c 16 d5 bd cc c3 cd 3d 7f 32 01 be 0a bf 0b be
       -0.10404679 0.10047111 -0.12616919 -0.13647094
000090 75 79 4f be bc 85 2e bc 74 cb 1a 3e 46 87 95 3e
       -0.20261176 -0.010652002 0.15116674 0.29204768
0000a0 19 2d 01 3e d1 7b f8 bd 40 76 c7 3d 31 a8 de 3c
       0.1261486 -0.12132991 0.09739351 0.02717981
0000b0 8a 9f ec 3d f0 e8 27 3d 7a b7 54 3c b7 e6 a6 3d
       0.11553867 0.04099363 0.012983197 0.08149474
0000c0 71 7a c4 3d 95 42 1d bc 09 f1 86 3c 06 06 2d 3d
       0.09593666 -0.009598394 0.016472356 0.042242073
0000d0 a6 9d 0c 3e c1 76 69 3e 07 1f 54 bd da 99 29 3e
       0.13732013 0.22799207 -0.051787402 0.16562596
0000e0 39 4e 6f bc 1d df e3 3d 1a 33 1b 3e 02 44 d8 3d
       -0.014606052 0.1112654 0.15156212 0.105598465
0000f0 ec b7 84 3e 6f ba 1c 3e 61 6f 9d 3d 49 0b 0f 3d
       0.2592157 0.15305494 0.076872595 0.03492287
000100 37 25 42 be 34 73 9a bd cb 9a c3 3d 5f d3 9f 3d
       -0.18959509 -0.075415045 0.09551009 0.07803988
000110 28 92 17 be bd 1f b1 bc af 1b 8d 3e 44 72 2f bd
       -0.14801848 -0.02162158 0.27560183 -0.04283358
000120 81 9f 4a 3e 67 70 69 bc ef 36 88 be cb 6e 9b be
       0.19787408 -0.01424799 -0.2660441 -0.30357966
000130 66 77 81 3e 18 a7 da bd b6 80 b0 3e 66 41 95 be
       0.25286406 -0.10676402 0.344732 -0.29151458
000140 55 4a 15 bc 76 29 75 be 4e 21 8f 3e 30 35 85 be
       -0.00911196 -0.23941597 0.27955097 -0.2601714
000150 7d ed 1e 3e 66 8b 64 3d 6e 6f 4f 3e ec 43 8b 3e
       0.15520282 0.055797003 0.20257351 0.27200258
000160 e1 43 33 be 0c 6e 6c 3e 54 84 c5 3d cc 71 97 be
       -0.17506362 0.23088855 0.0964438 -0.29579008
000170 0c 86 30 bc a5 0d f1 3d c9 d9 0c be 2f b4 7c be
       -0.010774147 0.117701806 -0.13754953 -0.2467811
000180 5a 7e b0 3c 23 c6 b3 bd 18 74 39 bc f5 66 e0 bd
       0.021544624 -0.08778026 -0.011319183 -0.109571375
000190 5c 6f 5d 3e 1b 2c 71 3e c5 1e 44 bd c4 30 36 be
       0.21624511 0.23551981 -0.047880907 -0.1779204
0001a0 52 30 63 3e 47 59 89 3d d9 22 38 3e f5 bb ed 3d
       0.22186401 0.067064814 0.17982043 0.116081156
0001b0 84 85 36 3d 16 15 61 bd 68 c9 bd bd 1c d8 fc bd
       0.044560924 -0.05495175 -0.09266931 -0.12345907
0001c0 48 f6 a7 be 9e cf f1 3d 55 ea 3f 3e 7e 1b a2 be
       -0.32805085 0.11807178 0.18741734 -0.316616
0001d0 75 d0 db 3d 47 a2 f5 3d 50 78 14 be 8d 5d 33 3e
       0.107331194 0.119938426 -0.1449902 0.17516156
0001e0 8b b7 41 3d 4b 05 82 3d 70 c6 70 be 6f 1b 13 be
       0.04729418 0.06348666 -0.23513198 -0.14365934
0001f0 04 fd f2 bc a1 7d 1f bd 0d 51 6d bd f1 c9 aa 3d
       -0.029661663 -0.03893817 -0.057938624 0.083392985
000200 dd 28 30 be c7 3b f5 3c 61 44 b9 3d ab 06 af 3d
       -0.17203088 0.02993573 0.09046245 0.08546194
000210 ac 7b 57 3e a0 dd 32 3d 77 b2 3d 3d ca a2 ae 3d
       0.21043271 0.04366839 0.046312775 0.08527143
000220 f9 d1 84 be 38 5f 29 3e b1 5d 2b be 1e 59 13 bd
       -0.25941446 0.1654023 -0.16734959 -0.03597366
000230 1b d5 89 bd ec ff 01 3c 9e e9 c7 bd 87 d2 c1 bd
       -0.067301 0.007934552 -0.09761356 -0.09463983
000240 f5 88 37 3e 4a 77 08 be aa 60 82 3e d1 64 31 bd
       0.17923339 -0.13326755 0.25464374 -0.043309037

lstm.weight_ih_l1 f4 [148, 37]
000000 01 b1 82 be 51 18 40 bf 54 9d 1a be 4f 32 4e be
       -0.25525668 -0.75037104 -0.15099078 -0.20136379
000010 d3 92 c2 3d 40 b2 e2 bd be 41 98 be 07 33 b8 be
       0.09500661 -0.11069155 -0.29737657 -0.3597643
000020 ff 53 6e be e7 31 23 be 6c 3d c1 3e 27 66 09 3f
       -0.2327423 -0.15937005 0.37742174 0.536715
000030 71 d4 80 3e 8b 81 86 bc d0 99 31 3c af 77 ae bd
       0.2516208 -0.016419193 0.010839894 -0.085189216
000040 a0 f9 44 3c 71 f4 1c bf f2 90 90 bd 20 a6 6a 3e
       0.012022406 -0.6131049 -0.07058896 0.22914934
000050 c8 c1 16 bf e2 7c ea 3c 69 a0 aa 3d 72 7e 46 3e
       -0.58889437 0.028624002 0.08331377 0.19384173
000060 27 88 9e 3d 1a 6f a0 bd 7d 74 1f 3e 5d 9b b7 3e
       0.07740813 -0.07833691 0.1557178 0.3586072
000070 27 4d 9b 3e ef 27 94 bd aa 88 4f 3e 92 01 ae 3e
       0.303323 -0.07234179 0.20266977 0.33985573
000080 37 30 64 3e 08 33 4b be 5a db 9a 3e c6 4d c6 3c
       0.22284018 -0.19843686 0.30245477 0.024207007
000090 fc 8c d8 bd 10 b2 50 be 4b 8c bc 3e 9c 9e c8 3d
       -0.10573766 -0.20380425 0.36825785 0.09795877
0000a0 47 48 a4 3b 8f 2f 92 3f 41 78 e8 be 75 30 15 3e
       0.005013499 1.1420764 -0.45404246 0.14569266
0000b0 f8 84 14 be ff 2b cd 3d bb 1f cc 3d 19 b9 12 3e
       -0.14503849 0.10018157 0.099669896 0.14328422
0000c0 ba 12 f0 3d 67 e6 c4 be e6 28 36 be 68 de 82 bf
       0.11722322 -0.38457033 -0.17789039 -1.0224123
0000d0 81 e6 d5 3e fa 3b 9a 3d b2 6c 06 3c 34 34 a3 3d
       0.41777423 0.07530971 0.008204626 0.07968941
0000e0 67 f1 73 3e ad 35 5a 3e d1 54 e2 be 56 60 b6 bd
       0.23822556 0.21309538 -0.44205335 -0.08905093
0000f0 6a a6 83 3e b1 13 c6 3d b3 9a ba 3e 4b 45 3b be
       0.257129 0.096717246 0.3644615 -0.18288152
000100 5a 56 8b be 0c ad aa 3e 86 5e b8 3e 75 48 26 be
       -0.2721432 0.3333515 0.36009616 -0.16238578
000110 81 ed 6a be 5e 07 e5 be 59 96 bd be f8 6a 57 bd
       -0.22942163 -0.44732183 -0.3702877 -0.052592248
000120 3f 67 46 bd 59 76 48 3e a0 d1 ed be 44 19 ba 3e
       -0.048438307 0.19576396 -0.46448994 0.363474
000130 96 18 90 bd 20 75 d4 be b5 7e 62 be 38 2c b8 bc
       -0.070359394 -0.4149561 -0.22118647 -0.022482023
000140 db 47 0a be 9c d3 ba 3c c9 3e 57 be 8e 9c ee 3c
       -0.13503973 0.022805981 -0.21020044 0.029127385
000150 30 11 91 3e 3c 56 1c be 24 db 01 bd 1d df 2b bd
       0.28333426 -0.15267271 -0.03170313 -0.041960824
000160 f0 f1 fd 3e 78 3d 99 bd 38 7c 87 be d1 6c e8 3d
       0.49598646 -0.07482427 -0.2646196 0.1134888
000170 22 2c f0 be 6c 0c 7b 3d 04 d9 2a 3e 1e 6e 8a bc
       -0.4690867 0.061291143 0.16684347 -0.016898211
000180 0d 0c 35 3e 39 a6 04 3e 98 75 e8 bd b4 c9 bc be
       0.17680378 0.12954034 -0.11350554 -0.36872637
000190 5d 97 9d be 17 eb d5 be dc 87 7f be 2d d6 8d 3e
       -0.30779544 -0.41780922 -0.2495417 0.27702466
0001a0 e5 64 14 3e 85 6e c1 bd 8d 92 9b bc 50 94 52 be
       0.14491613 -0.09444908 -0.01899078 -0.20564389
0001b0 35 b1 23 3f 27 96 51 3e c6 33 66 be e7 eb c5 be
       0.6394227 0.20467435 -0.22480687 -0.38656542
0001c0 e3 3c 3e bf c9 a6 a9 bc 25 99 e2 be b5 a3 74 3e
       -0.74311656 -0.020709412 -0.44257465 0.23890574
0001d0 2c 47 c6 bb 00 2b 0d bf 03 63 19 3e 42 7f 30 be
       -0.006050965 -0.5514374 0.14979176 -0.17236045
0001e0 9e 1d 08 be e4 21 00 3f c0 27 84 3e 51 20 39 be
       -0.13292548 0.50051713 0.25811577 -0.18078734
0001f0 87 52 c3 3c ec 19 96 be 66 a8 32 be 02 8f ac be
       0.023843063 -0.29316652 -0.17447051 -0.33702856
000200 30 09 60 bf 04 45 1e be 7b 0f 16 3e be 9f 34 bf
       -0.8751402 -0.15456015 0.14654343 -0.7055625
000210 12 ff 06 3f 43 5d 83 3d 66 5d 08 3f 04 19 19 bd
       0.52732956 0.06414273 0.53267515 -0.037377372
000220 4d 5c ab be fa 12 82 bd 17 8f 07 3f c9 1b 27 3d
       -0.33468857 -0.06351276 0.5295271 0.040797982
000230 c6 c7 45 be f7 5b b8 3e ff 7e 3c 3d 4f 28 9b 3d
       -0.19314489 0.36007664 0.04601955 0.07576048
000240 a2 eb 2a bf 0f 96 52 be 88 96 97 3e db a5 3e 3e
       -0.667658 -0.20565055 0.29607034 0.18617956
000250 1b ef 11 3c 0f 4c b6 be 51 ca 07 bf 30 f5 8f be
       0.008907105 -0.35604903 -0.53043085 -0.2811675
000260 4e 11 82 3e 97 16 0c be 44 f1 88 3e 80 1a c0 be
       0.25403827 -0.13680492 0.2674657 -0.37520218
000270 36 c6 71 3e 48 f1 4c 3d a1 ca 40 3e 29 62 c2 bd
       0.23610768 0.05003479 0.18827297 -0.09491379
000280 b7 a5 88 be d8 78 bf bd da 80 84 bd 0b 92 f2 3d
       -0.2668893 -0.09349221 -0.06469889 0.11844262
000290 45 6f 1e be f8 65 b0 be 84 6f 34 be af af 86 3e
       -0.15472133 -0.34452796 -0.17620665 0.2630591
0002a0 31 b5 36 be 79 e2 c3 3d 9f 47 7a bc bb 81 8b bd
       -0.17842557 0.095646806 -0.015275865 -0.068118535
0002b0 ac 18 1e bd 5f ef 13 3f aa 4f 92 be 58 83 f1 bd
       -0.038597748 0.57787126 -0.28576404 -0.1179263
0002c0 58 c7 e8 3e 4d 5a 83 3e a2 ac 47 3d 80 29 4c bb
       0.45464587 0.25654832 0.04874862 -0.0031152666
0002d0 4c c6 ab bc b9 dd 61 bd 04 68 d5 3d a8 6f c1 be
       -0.020968579 -0.05514309 0.1042023 -0.377805
0002e0 dc 9c dd 3d 17 7f 94 be 5d ef 93 be 1a a9 c7 be
       0.10820934 -0.29003212 -0.28893557 -0.38996202
0002f0 e9 e9 6f be 52 19 7e 3f 0b b0 20 bf a3 b5 b3 bd
       -0.23429073 0.99257386 -0.6276862 -0.08774879
000300 c4 0b 8d bd 7b fe 32 be 5c 54 39 3d 58 01 9d 3e
       -0.0688701 -0.17479889 0.045246467 0.30665088
000310 f7 0e df bb 95 58 b1 be 80 65 ff 3d 19 5c 86 be
       -0.006807204 -0.34637895 0.124705315 -0.2624214
000320 b8 7d 1a 3e f7 5f f2 bd ec b2 af be 14 64 96 be
       0.1508702 -0.1183471 -0.34316194 -0.2937323
000330 39 06 01 3f 7a c2 bb be da d6 37 3d 42 c1 c4 3d
       0.5040012 -0.3667181 0.044882633 0.096071735
000340 b4 17 94 3e 78 59 b3 be 46 66 b5 3e bd aa 8a be
       0.28924334 -0.35029197 0.3542959 -0.27083388
000350 ba 0d 22 bd de 37 ad 3e 93 b5 bf 3d 28 ad c8 3d
       -0.039563872 0.33831686 0.093608044 0.09798652
000360 bb 41 50 3d a2 39 8a 3b 78 e9 4b be cf 3f 3f be
       0.050843935 0.004218296 -0.1991328 -0.18676685
000370 f2 44 93 be 59 0b 5d bd a8 ad 99 be c3 c7 5a 3e
       -0.2876354 -0.0539659 -0.30015302 0.21365266
000380 9c fe ca 3b 51 16 ec bd 52 70 d8 3e 3d a5 11 3e
       0.0061949026 -0.11527694 0.42273194 0.1422319
000390 01 01 bb 3e 3a c4 2e bd aa 5a 99 3e 0d 2e 32 3e
       0.36524203 -0.042667605 0.29951984 0.1740038
0003a0 b7 15 be 3e b6 5a 51 be 07 30 c3 be 46 16 1d be
       0.37125942 -0.2044476 -0.3812258 -0.15340528
0003b0 78 45 dc be e6 5a d1 3d 41 e6 8f be 82 b6 33 3d
       -0.4302175 0.102224156 -0.28105357 0.043875225
0003c0 e5 9b 0d 3e 5b 2f ca bb 22 cd 5d bc 10 9b 78 be
       0.13829 -0.006170196 -0.013537677 -0.24277902
0003d0 37 d9 9c 3e 30 6d 83 3e af 8b 74 be c7 27 03 3e
       0.30634472 0.2566924 -0.2388141 0.12808143
0003e0 c6 fc 6f be de 28 b9 bd 59 d5 f8 3e fc 52 3f 3e
       -0.23436269 -0.09040998 0.4860027 0.18684
0003f0 57 04 c2 bc 50 30 4d 3e f2 4b 5a be 47 12 6a be
       -0.02368371 0.20037961 -0.21318033 -0.22858535

lstm.weight_hh_l1 f4 [148, 37]
000000 38 e4 9a 3e 93 b8 35 be 4f 9e 25 3c d0 9a 05 be
       0.30252242 -0.1774619 0.0101085445 -0.13047338
000010 9d d6 a4 3d d7 2a 28 be 81 ed 81 be 4f f4 f8 be
       0.08048747 -0.16422592 -0.25376514 -0.48623893
000020 37 5a 47 3e f2 9d 75 be 50 53 cb be 8a f7 b6 bb
       0.19468008 -0.23986033 -0.39712 -0.005583708
000030 48 1e f4 3d 9b d9 4c 3e ce cf 36 3d 62 ee f4 bd
       0.11919838 0.20004885 0.04463177 -0.119595304
000040 9d 4b da bd 23 12 9f be 32 07 ed 3c 9d 15 84 be
       -0.10658953 -0.31068525 0.028934095 -0.2579774
000050 6a 5a f0 3b 02 29 c1 bd ee b7 e4 be 47 a1 71 3e
       0.007334997 -0.0943165 -0.44671577 0.23596679
000060 9d 65 a6 3d 49 ea a5 3e 47 b8 98 be 1c ab 32 bf
       0.0812485 0.32405308 -0.29828092 -0.6979234
000070 dc 1a a8 3e 41 9f 55 3e 96 0f 04 be 7f ca d1 3e
       0.32832992 0.20861532 -0.1289657 0.40974805
000080 b0 7f 46 3e 2b 4d 27 3e e7 bc 78 be be ef f5 3e
       0.19384646 0.16338031 -0.2429081 0.4803447
000090 28 79 45 be 66 a5 8e be 56 99 b2 be 52 8e 8b be
       -0.19284499 -0.27860564 -0.3488261 -0.2725702
0000a0 3c 32 35 3e 2c c4 8c bd 28 c4 0f be 86 da 2c be
       0.17694944 -0.06873354 -0.14039671 -0.16880235
0000b0 69 c3 0d 3f 6f 13 86 3e 15 98 09 be b1 b5 3d be
       0.553763 0.26186702 -0.13436921 -0.18526341
0000c0 4d 6d 99 bd 5d a0 ea bd aa ae e1 3e 88 7d 12 be
       -0.074915506 -0.11456368 0.4407857 -0.14305699
0000d0 88 f1 57 3e 09 c5 12 bf ff a0 8d be 5a 58 31 bc
       0.2108823 -0.573319 -0.27661893 -0.010824287
0000e0 28 ac 98 be 6e 31 11 bd 3a 6f 83 3e 60 99 01 bf
       -0.29818845 -0.03544753 0.25670797 -0.50624657
0000f0 28 68 08 be 85 49 27 3e 25 1f 2b bb 6a 7c e3 3d
       -0.13320982 0.16336639 -0.0026111093 0.111077145
000100 31 9d 93 bd 1f 20 f1 ba 6d 19 7d be 83 22 42 be
       -0.07207716 -0.0018396414 -0.2471673 -0.18958478
000110 8b b7 ae 3e 5f be bb bd 97 a1 47 be 0d f1 9b bd
       0.34124407 -0.0916717 -0.19495235 -0.07614336
000120 f4 e5 f7 3e 7b ad 1b be b8 7f eb be 99 db a1 3e
       0.48417628 -0.15202896 -0.4599588 0.31612852
000130 d7 88 57 be 19 1a d2 3e f6 5b e7 be 80 ae ce 3e
       -0.21048294 0.41035536 -0.45187348 0.40367508
000140 fd 25 ac 3e e9 b3 8c be 1f e6 0e bf 67 26 85 bd
       0.33622733 -0.2748101 -0.55819887 -0.06501465
000150 cd fb ef 3e ab 9d 08 3f df 08 70 3d 5b b0 b9 be
       0.46871796 0.5336558 0.05860221 -0.3626736
000160 6a 7c b1 3d cf db 75 3d 28 32 9a 3e b1 84 f0 3e
       0.08666308 0.06002408 0.3011639 0.46976236
000170 c7 52 3a 3d c3 4b d8 3e 19 59 c8 3e 14 a2 b9 3e
       0.0454891 0.42245302 0.39130476 0.36256468
000180 65 0e 23 3f f7 eb ba be 4c 13 00 bf 6d 07 fc be
       0.6369384 -0.36508152 -0.50029445 -0.49224415
000190 31 df e9 3e 94 64 21 3f 39 6f 3e bb 11 db 1d be
       0.45678094 0.63044095 -0.0029057993 -0.15415598
0001a0 55 91 dc bc dc 1e 16 bf 6a cb a7 be 21 d8 8a be
       -0.026924768 -0.5864084 -0.3277238 -0.27118018
0001b0 a3 8a fa 3e 51 ba 1f bf 4c 18 fd 3e 1e 19 ca bd
       0.48933896 -0.6239367 0.494326 -0.09868072
0001c0 0c 0f 2e bc a9 eb cb 3e 81 2a e9 bd d6 cb 43 be
       -0.010623705 0.39828232 -0.1138506 -0.19120726
0001d0 bc e7 80 be 12 53 46 bd 43 4a 08 3e 79 3a cb bd
       -0.251768 -0.048419066 0.13309579 -0.09923262
0001e0 70 cc 20 3d 19 6c 32 3e ef 81 70 3e 69 9c 6c 3e
       0.039257467 0.17424048 0.23487066 0.2310654
0001f0 87 d5 7e bb ae 6f 72 be 79 2b d0 be 95 47 96 3e
       -0.0038884596 -0.23675415 -0.40658167 0.29351488
000200 ab 3c 30 bd 45 a1 68 bd 15 3e 9f 3d 67 9c 0d be
       -0.043026607 -0.056794424 0.07775513 -0.13829194
000210 0c 12 3b 3d b8 03 21 be 74 e7 a8 bd 1b 1b 15 be
       0.045671508 -0.15724075 -0.08247271 -0.14561121
000220 43 a3 42 be 71 02 b4 3c 16 d4 a3 bd 9b 01 7a be
       -0.19007592 0.02197382 -0.079994366 -0.24414675
000230 45 f9 a5 3d 57 96 15 3e b5 05 6a bc f6 87 f2 bd
       0.08104185 0.14608131 -0.014283587 -0.11842339
000240 ca 2e 62 be d9 41 2c 3d f6 86 28 bd 2c 89 b0 3d
       -0.22088161 0.042054985 -0.041144334 0.086199135
000250 ef 00 4b be 1c c2 02 bf 68 17 cd 3d 68 a1 3f 3e
       -0.19824575 -0.5107744 0.1001423 0.18713915
000260 51 0e 4b 3f 80 65 e6 be 09 bc b9 be 5f 2c 46 3e
       0.7931872 -0.44999313 -0.36276272 0.19352864
000270 b2 75 73 bd cc 10 aa 3c 50 b0 cf be 25 5c c9 be
       -0.059438415 0.020759962 -0.40564203 -0.39328113
000280 b5 be 9a be fd bd db 3e 9a 35 37 be 21 67 f8 bd
       -0.30223623 0.42918387 -0.17891541 -0.12129045
000290 cb ba 8c be 3b 34 7e 3e 57 9a af 3d 84 96 bb bd
       -0.27486262 0.24824612 0.0857436 -0.09159568
0002a0 38 4c 0c bf 72 12 3d be 0e 4d 61 be cc 7f e8 bd
       -0.548038 -0.18464068 -0.2200205 -0.113525
0002b0 45 22 d9 3e 52 b4 14 3e 69 d8 9a be 23 08 cc 3e
       0.42408958 0.14521912 -0.30243233 0.39849958
0002c0 91 4d a5 be 07 4c 85 3e 1a 09 91 3e f7 b2 63 3e
       -0.3228574 0.26034567 0.28327256 0.22236238
0002d0 00 2d 82 3e dd f2 69 be 59 c2 25 be 48 a6 57 be
       0.25424957 -0.22846551 -0.16187419 -0.21059525
0002e0 fa cf 9e be 14 2d 23 be 59 9c 8a be 41 59 74 3e
       -0.3101805 -0.15935165 -0.2707241 0.23862173
0002f0 ba 4c 85 be 54 06 35 3d ea c7 79 be ec fb 45 3e
       -0.260351 0.044195488 -0.24392667 0.19334382
000300 14 3b d5 be 30 09 d5 bd 70 e5 f1 3d ba 43 0f be
       -0.41646636 -0.10402143 0.1181134 -0.1399068
000310 39 41 39 3e 5d 92 b3 be a0 93 af 3d e9 f5 0c 3e
       0.18091287 -0.35072604 0.08573079 0.13765682
000320 64 74 5b be e9 03 4f be ed 7c f4 bd 33 50 a7 3c
       -0.21431118 -0.20216335 -0.1193789 0.020423984
000330 c7 44 13 be a9 3b 07 3d d9 cd 64 be 34 58 a7 bd
       -0.14381705 0.03301588 -0.2234415 -0.0817112
000340 bb 26 30 3d 71 de 07 3e 0f 4f a6 bd ca be ab 3d
       0.043005686 0.13268448 -0.08120548 0.083859995
000350 68 42 af be c4 35 b9 be 61 37 e0 bc 20 0a 8a 3d
       -0.3423035 -0.36173832 -0.027370157 0.067402124
000360 59 9e 46 bd df 42 25 3c 0d 00 86 be 57 11 43 bd
       -0.048490856 0.010086744 -0.26171914 -0.04762396
000370 46 a2 ef bd 4f 09 86 bd 38 4e 1e 3d 2f c4 ab be
       -0.11700873 -0.06544744 0.038648814 -0.33548114
000380 c2 38 ae 3e 79 3e 4e 3e 48 d7 3b 3e ad 60 9d be
       0.34027678 0.20141019 0.18343842 -0.3073782
000390 8e db 3c be 3a 0e 08 3f dd a2 e0 ba 3c e9 fb 3d
       -0.18443128 0.5314671 -0.0017138381 0.12300345
0003a0 ef 48 bf 3b 60 7f 14 be 80 7f 11 3e 3d ec 0f 3e
       0.005837552 -0.14501715 0.14208794 0.14054962
0003b0 64 17 0b 3d 31 91 12 3f c8 5c 86 3b c6 c3 cd 3e
       0.033957854 0.57252795 0.004100416 0.40188426
0003c0 ef 0a 31 3e 33 7f c6 bd 80 c0 e6 be 2c 5f 66 be
       0.17289327 -0.0969223 -0.4506874 -0.22497243
0003d0 e8 fd c3 bd 3d 62 b0 3d 35 87 08 3e b1 e5 15 3e
       -0.09569913 0.086124875 0.13332827 0.14638402
0003e0 a2 04 83 be e1 83 9f 3e a4 5c 07 be 15 e5 48 bd
       -0.25589472 0.31155303 -0.13218933 -0.049046595
0003f0 61 2b 74 bd 43 dc 44 3d 4b d4 78 3e b4 26 3e be
       -0.05961168 0.04806162 0.24299733 -0.18569452

lstm.bias_ih_l1 f4 [148]
000000 60 51 2f be d5 87 da bd 6e d4 98 be 3d ab 43 be
       -0.17120886 -0.10670439 -0.2984957 -0.19108291
000010 f8 86 05 be 09 0e 4a bd 5f 5a 81 bd 3c c8 30 be
       -0.13039768 -0.04932979 -0.06316065 -0.17263883
000020 b1 f2 0d bd 24 91 34 be c9 75 b5 be ab a1 93 3d
       -0.034655277 -0.17633492 -0.35441425 0.0720857
000030 8e bb 8c bd f2 01 12 3c b2 f5 40 3c 49 24 88 be
       -0.06871711 0.008911597 0.011777328 -0.26590183
000040 a9 97 16 3e 9f ee 03 bf 36 a5 59 bd 0a e9 cd be
       0.14706291 -0.5153598 -0.053136073 -0.40216857
000050 3e f6 9d be 89 76 af be c5 fc 7c 3d 12 99 9e be
       -0.3085193 -0.34270123 0.061764497 -0.30976158
000060 cb f9 b5 bd d3 33 76 be 93 36 a0 be 38 8f 03 be
       -0.08885535 -0.24043207 -0.31291637 -0.12847602
000070 ac 26 bd bd 82 28 85 3c 8d b4 11 be bf 83 e0 be
       -0.09235892 0.016254667 -0.14229031 -0.43850514
000080 9c a7 73 be 38 7a af bd 8f 0b be be 5b d0 6e bd
       -0.23794407 -0.08568233 -0.37118194 -0.058304172
000090 1a fe 21 be b6 ff f2 be 92 5b c4 3e 7a ee 23 3f
       -0.15819588 -0.47460717 0.38351113 0.6403576
0000a0 b7 e1 52 3e 62 38 50 3f e2 3c 26 3b 89 f9 dd 3e
       0.20593916 0.81336033 0.0025365879 0.43354443
0000b0 9c 16 f4 3d fb 63 60 be 21 82 43 3e 2f 62 16 bf
       0.11918375 -0.2191314 0.19092609 -0.58743566
0000c0 4a 9c 68 3e 96 17 12 3f 47 49 5f 3e 22 e7 1c bf
       0.2271587 0.5706724 0.21805297 -0.6129018
0000d0 b9 94 79 3e ab e5 70 3e ac 46 40 bf 36 86 6b bb
       0.2437314 0.23525111 -0.75107837 -0.003593815
0000e0 f6 4d 32 bf 46 66 cf 3e 87 34 80 3d f8 97 bb 3e
       -0.6965021 0.40507716 0.06260019 0.3663938
0000f0 1c 7f ab be ad 58 04 3f e7 1c 28 bf 03 46 ad 3d
       -0.33495414 0.5169781 -0.656691 0.08460619
000100 93 c3 af be 61 aa b4 3c b7 bc 0b bf 8e de 94 3e
       -0.343289 0.0220539 -0.5458483 0.29076046
000110 f3 3c 4b bf 07 56 38 bf 23 f3 78 be 75 75 41 bf
       -0.79389876 -0.7200627 -0.243115 -0.7556985
000120 ba a6 02 3e 74 4b 3d bd bb b1 42 be b4 16 93 be
       0.12758914 -0.046214536 -0.19013111 -0.2872826
000130 ac 34 e6 3d 3a 1f 17 3e 98 6d 80 3e 93 a2 cd be
       0.11240515 0.14758006 0.25083613 -0.40163097
000140 ef a4 55 be ec 1c bf 3d 0f 7e cf bb 62 1f f6 bd
       -0.20863698 0.09331688 -0.006332166 -0.120177045
000150 3c cb af bd f7 a2 cc 3d 74 7c 4c be c4 f7 bb 3e
       -0.08583686 0.099920206 -0.1996935 0.36712468
000160 53 a0 ab bd d8 e8 43 3e 81 a2 3a bd 55 29 3e 3e
       -0.08380189 0.19131792 -0.045565132 0.18570454
000170 99 d0 48 be a7 db cc 3d 5b 8a 61 be 55 35 6f be
       -0.19610824 0.10002833 -0.22025435 -0.23360188
000180 1b 3d f4 bd 66 00 d1 bd 75 3b 9b 3e 8c 37 45 bd
       -0.119257174 -0.10205154 0.303188 -0.048148677
000190 75 47 be 3b 67 1d ed 3d 83 27 dd be f0 df 45 3e
       0.005806858 0.11577874 -0.43194208 0.19323707
0001a0 c4 d9 be 3e 4c 69 2b be 8d b4 bf 3d 0e da b5 be
       0.37275517 -0.16739386 0.09360609 -0.35517925
0001b0 61 b1 37 be 4b a8 05 3c 39 72 e6 bd 59 aa 0d bf
       -0.17938758 0.0081578 -0.11252255 -0.55338055
0001c0 c9 cb e3 be 76 1a 53 3e 81 cd a3 bd 39 b6 28 bf
       -0.44491413 0.20615563 -0.07998181 -0.6590305
0001d0 81 56 ae be 82 89 28 bf a0 cb a1 bc 17 d9 de be
       -0.34050372 -0.6583482 -0.019750416 -0.43525
0001e0 34 89 b9 bd 64 04 1e bf 06 f4 13 bf d9 85 a0 be
       -0.090593725 -0.6172545 -0.57794225 -0.31352118
0001f0 68 57 13 bf f5 cd 38 be 44 db b9 3d 43 8e 1a bf
       -0.57555246 -0.18047316 0.09075025 -0.60373324
000200 99 5b 01 bf 39 a9 0f be b8 1e 7d be bb 29 c0 be
       -0.5053039 -0.14029397 -0.2471875 -0.37531838
000210 ae 37 e5 be d1 97 0f bf 85 f3 99 be 54 a0 f5 be
       -0.44769043 -0.5609103 -0.30068603 -0.47973883
000220 cd f3 0a bf 4c bb 16 bf 4c 2a 2f bf 98 68 e9 bd
       -0.5427826 -0.5887954 -0.68423915 -0.11396903
000230 38 4e ba bd 72 29 38 bd c1 bb 93 be e2 4a 16 bf
       -0.0909695 -0.0449614 -0.28854182 -0.5870801
000240 b3 b5 b5 be 50 11 32 bf bf af 29 bf 24 cc e9 be
       -0.35490188 -0.69557667 -0.6628379 -0.4566356

lstm.bias_hh_l1 f4 [148]
000000 eb 8b df be c9 c5 f1 bd df 11 70 be ad af c9 be
       -0.43661436 -0.11805303 -0.23444317 -0.39391842
000010 bd 46 52 bd 7e d8 06 be c5 a5 fe 3c 08 98 2d be
       -0.051336993 -0.13168523 0.031084904 -0.16952527
000020 7c f1 2c be c1 9c be be 96 2d 55 be d3 a8 94 3d
       -0.16888994 -0.3722897 -0.20818171 0.07258763
000030 94 11 7e bd 8a c5 5d 3c 67 c6 a5 bc db 92 d0 bd
       -0.062028483 0.0135358665 -0.020236207 -0.101842605
000040 9d 6d 81 3d 62 e2 9c be 3f 3f 8b be 24 d2 f3 be
       0.06319735 -0.30641466 -0.2719669 -0.47621262
000050 fe 31 99 be 4c 0f 15 be 1a e3 db 3d 6c 90 8c be
       -0.29920954 -0.14556617 0.107366756 -0.27453935
000060 ea 26 05 be 2f 63 28 be 92 0f 88 be bd 8e 30 be
       -0.13003126 -0.16444086 -0.2657438 -0.1724195
000070 9a 3b b4 3d 7d cd b2 3d cf 32 49 be d6 0e 96 be
       0.088004306 0.087306 -0.19648288 -0.29308194
000080 17 77 9e be ff 35 a4 be 24 69 50 be 38 45 e0 bc
       -0.30950233 -0.32072446 -0.20352608 -0.027376756
000090 4a f5 96 bd e8 b4 2a bf 7d 8d 0b 3f e0 4d 23 3f
       -0.07371004 -0.6668229 0.5451277 0.637907
0000a0 3c 69 80 3e d2 be 1d 3f fd c6 f9 3d 01 9a b4 3e
       0.25080287 0.61619294 0.12196157 0.35273746
0000b0 b6 84 85 bd 63 2b 91 bd f1 ba 26 3e 9b 10 55 bf
       -0.06519453 -0.070883535 0.1628225 -0.8322846
0000c0 04 a3 39 3e ca a8 0e 3f 1c ff aa 3e d9 a2 c3 be
       0.18128592 0.557263 0.33397758 -0.3821018
0000d0 e7 e2 6f 3e cf c9 ef 3e 60 4c 38 bf 30 17 f5 bd
       0.234264 0.46833655 -0.7199154 -0.11967313
0000e0 e9 ed 04 bf 22 17 f4 3d e2 ce 1a 3e 0f 58 44 3e
       -0.5192552 0.11918475 0.15117982 0.19174217
0000f0 8b 01 05 bf 51 df da 3e 02 ae 01 bf 7c 33 93 3e
       -0.5195548 0.42748502 -0.5065614 0.28750217
000100 67 6a c6 be 28 1f a5 3e 54 da 0d bf 5a c2 60 3e
       -0.38753054 0.32250333 -0.5541127 0.21949139
000110 38 1b 0a bf a5 4e 15 bf d9 0a 1c be 8f 7a 2c bf
       -0.5394778 -0.5832313 -0.15238513 -0.6737451
000120 99 24 8e 3e 1a d0 de bd b5 79 20 be e4 1b ad be
       0.27762297 -0.10879536 -0.15671428 -0.3381034
000130 b1 d0 7a 3d b9 9f eb bd a2 d0 a2 3d 5e c3 77 be
       0.06123418 -0.11505074 0.0794995 -0.2419562
000140 bf fa 65 be 7e 3f dd 3d c7 5b 12 be c4 ab 71 bd
       -0.22458933 0.10803126 -0.14292823 -0.0590017
000150 1d 2c 21 be b4 60 21 bd 0c 3d 8a be 4e c5 c3 3e
       -0.15739484 -0.039398864 -0.269997 0.3823647
000160 31 8b df bd a4 f5 42 3d 2b 23 e7 bd 2a c6 8a 3c
       -0.109152205 0.047597542 -0.11286005 0.016940195
000170 5c 8d 9e bc 7b 04 fa bd 8f a1 e9 3b fc 14 92 bd
       -0.019354515 -0.12207886 0.007129855 -0.07132909
000180 10 ec ce 3d 09 ed 1d be 6b 3f a2 3e 9c 90 9a 3c
       0.10103619 -0.15422453 0.3168901 0.018867783
000190 12 ed fe 3c ea 0d 4d 3d 3a b4 50 be 7b 0e ae bc
       0.031118903 0.050062098 -0.20381251 -0.02124714
0001a0 0a 30 9c 3e 14 43 42 be 9a 0e 08 3e 72 f9 8e be
       0.305054 -0.18970901 0.1328682 -0.27924687
0001b0 ac 96 e7 bd 0a af 1d 3d a6 e8 76 be 90 85 b5 be
       -0.11308035 0.03849701 -0.24112186 -0.35453463
0001c0 df a6 96 be 38 53 84 3e 3f 84 67 be 51 d7 1b bf
       -0.29424188 0.2584474 -0.22609042 -0.6087542
0001d0 b3 fe b9 be 6a 4a 09 bf 66 8d 65 3c db e8 00 bf
       -0.36327133 -0.5362917 0.014010763 -0.5035531
0001e0 38 34 d2 bd 12 fa 31 bf 48 e1 2b bf fb 8b b1 be
       -0.10263866 -0.695222 -0.67140627 -0.3467711
0001f0 c3 97 f1 be e7 c1 f3 bd 77 6b 8f 3b bc db bf be
       -0.47186098 -0.11902218 0.0043768245 -0.37472332
000200 49 b6 08 bf bd 27 49 be 1e ec bd be a0 c4 73 be
       -0.53403145 -0.19644065 -0.37094206 -0.23805475
000210 34 35 c5 be 0f a7 0e bf e7 1f 9c be ce 6d 9d be
       -0.38517153 -0.5572366 -0.3049309 -0.30747837
000220 fa b0 24 bf 98 ea 09 bf a9 24 e2 be c7 2a 5d 3b
       -0.64332545 -0.53873587 -0.44168594 0.003374742
000230 77 7f b7 be 05 56 62 3e 91 a0 fb be 8f 97 b9 be
       -0.35839435 0.22103126 -0.4914594 -0.36248443
000240 09 60 9d be dc 5f 2c bf 77 a0 21 bf b7 f3 40 be
       -0.30737332 -0.6733377 -0.63135475 -0.1884297

fc.weight f4 [1, 37]
000000 78 85 1d 40 11 75 fa bf c3 28 27 40 da 91 11 c0
       2.4612713 -1.9566976 2.611863 -2.274527
000010 ae e3 10 40 4c 27 0e c0 4b 79 0b c0 0d a1 cf bf
       2.2638965 -2.2211485 -2.1792781 -1.6221024
000020 b5 05 15 40 8d a6 32 40 37 bb 3b c0 dd 89 1a c0
       2.3284733 2.7914155 -2.9333017 -2.4146645
000030 ce 91 57 c0 ec 4a 10 40 0b 58 48 40 3f d6 20 c0
       -3.3682742 2.2545729 3.1303737 -2.5130765
000040 ad 19 23 c0 b9 0a 27 c0 bd fc ba 3f 48 a4 1d c0
       -2.5484421 -2.6100295 1.460838 -2.463152
000050 1c 9c f0 bf 4a ad 1b c0 06 2b 1e c0 d8 a1 24 40
       -1.8797641 -2.4324517 -2.471376 2.5723782
000060 4e bf 12 40 72 58 17 40 3d 86 11 c0 ff b9 23 c0
       2.2929263 2.3647733 -2.2738183 -2.5582273
000070 b2 5d ee bf 92 e1 28 40 00 26 83 40 52 46 52 40
       -1.8622344 2.6387677 4.0983887 3.285542
000080 51 79 1d 40 a4 50 12 40 3e cc 1e c0 3c e6 22 40
       2.4605296 2.286172 -2.481216 2.5453024
000090 47 6a 01 c0
       -2.0221117
